weights/mnist_net.pth (torch, 184660 bytes, 10 tensors)

conv1.weight f4 [8, 1, 5, 5]
-0.034256067 -0.054035343 0.026490463 -0.1831033 0.12646934 -0.09217656 0.050344624 0.18986201
0.0013276916 0.08477112 0.059518695 -0.16012993 0.16057533 -0.17462151 -0.1601167 -0.17783093
0.0734533 -0.03461612 0.035290044 -0.18198079 0.10117556 -0.015812214 -0.09598496 -0.08686157
0.037011895 -0.12226985 -0.08028682 0.19223252 -0.18897401 -0.1408457 -0.09057292 -0.051724903
-0.08876695 0.110333234 -0.13544732 0.116445035 -0.012406003 0.1043327 0.15551543 -0.046984382
-0.1893235 -0.15033677 0.09667031 0.109586164 0.035062592 -0.101090975 0.11261034 0.018934133
-0.04027442 0.05590442 0.07923825 -0.1353162 0.038750734 -0.117260635 -0.03902762 -0.19913217
-0.058618408 0.06254542 0.02102106 -0.17688571 0.09807666 0.14499117 0.07440784 0.050713148
-0.13408045 -0.09587345 0.15194762 -0.06311002 -0.036802117 0.0483815 0.13454896 -0.12910327
0.026106747 0.10027974 -0.017440062 0.10587281 0.08064804 0.06925088 0.11927307 0.07734947
-0.018367227 0.18332872 -0.06400264 0.17625417 0.14847821 -0.053299505 -0.033459626 0.0083560925
-0.13455021 0.1383747 0.15059103 0.058445096 0.13773048 0.12681957 0.16870837 0.12678587
0.078024015 0.03073791 0.014376863 0.040405132 -0.110202014 -0.15412721 -0.018252568 -0.058253713
-0.060761034 0.13070421 -0.12898593 0.050772816 0.08774904 -0.14087848 0.1718476 -0.04619908
-0.18112311 0.026926698 -0.011619291 -0.12616429 -0.19832101 -0.037952855 -0.093769416 0.2010919
0.18417874 -0.08319575 0.20059077 -0.07497627 0.15657781 -0.007294237 -0.10022189 0.15592988
0.06128084 -0.15288286 -0.05851123 -0.108288065 -0.013612105 -0.18998268 -0.01524421 0.18990183
0.10200187 0.033597816 -0.07438695 0.018716965 -0.031213418 -0.040046863 0.09267091 -0.065721415
0.1131931 -0.016661739 -0.17029844 -0.06816983 0.08477821 0.07462839 0.19913356 0.05054546
0.09659439 0.06319154 0.1113757 -0.15363944 -0.13183664 -0.09395261 -0.18980357 0.065384366
0.03057017 0.01719732 -0.07389029 -0.15769374 0.13839415 0.12272477 -0.03195855 0.008844672
0.014661187 0.01258809 0.06490257 0.17842908 0.14157353 0.14816482 -0.0036428268 -0.13519645
-0.039098766 0.18504308 -0.15042257 0.09460901 0.10150084 -0.024395747 0.04858533 -0.09758615
-0.12404937 -0.1319533 -0.027422804 -0.15210304 -0.15723278 -0.032537803 -0.034096856 -0.02715206
-0.068248324 -0.010678782 0.19466245 0.007870992 0.013789428 -0.019827548 0.03984355 0.15036905
00000000: 1750 0cbd 2a54 5dbd 8702 d93c 6e7f 3bbe
00000010: 2e81 013e 10c7 bcbd 2a36 4e3d 306b 423e
00000020: f005 ae3a 7b9c ad3d e0c9 733d 1af9 23be
00000030: dc6d 243e fbcf 32be a2f5 23be 5019 36be
00000040: af6e 963d a2c9 0dbd 4b8c 103d 2c59 3abe
00000050: 2235 cf3d 9e88 81bc c393 c4bd 7be4 b1bd
00000060: c999 173d 9d68 fabd 6b6d a4bd 9ad8 443e
00000070: 6782 41be db39 10be 4c7e b9bd 7edd 53bd
00000080: 72cb b5bd 64f6 e13d b4b2 0abe bc7a ee3d
00000090: 8c42 4bbc 62ac d53d 703f 1f3e b272 40bd
000000a0: 05de 41be e2f1 19be 15fb c53d b66e e03d
000000b0: cb9d 0f3d c908 cfbd 40a0 e63d c11b 9b3c
000000c0: caf6 24bd 08fc 643d aa47 a23d 5490 0abe
000000d0: 17b9 1e3d 5826 f0bd 6ddb 1fbd 4ee9 4bbe
000000e0: db19 70bd d017 803d 5c34 ac3c 8721 35be
000000f0: 6adc c83d 9178 143e 2363 983d 97b8 4f3d
00000100: 634c 09be 4d59 c4bd 2898 1b3e d33f 81bd
00000110: d1bd 16bd ae2b 463d 34c7 093e a633 04be
00000120: d1dd d53c 775f cd3d 76de 8ebc d8d3 d83d
00000130: cd2a a53d 68d3 8d3d 7045 f43d 6669 9e3d
00000140: de76 96bc 86ba 3b3e d113 83bd f97b 343e
00000150: ac0a 183e 9550 5abd f60c 09bd fee7 083c
00000160: 88c7 09be 19b2 0d3e 8934 1a3e 2064 6f3d
00000170: 3809 0d3e fddc 013e e3c1 2c3e 28d4 013e
00000180: 0ecb 9f3d 12ce fb3c ef8c 6b3c da7f 253d
00000190: 98b1 e1bd 86d3 1dbe 6986 95bc 729b 6ebd
000001a0: 90e0 78bd 53d7 053e e314 04be 28f7 4f3d
000001b0: c5b5 b33d 7342 10be d1f8 2f3e 3f3b 3dbd
000001c0: 5678 39be 6195 dc3c d75e 3ebc 3631 01be
000001d0: aa14 4bbe 7474 1bbd 2e0a c0bd 09eb 4d3e
000001e0: 5a99 3c3e 8962 aabd ab67 4d3e 298d 99bd
000001f0: ef55 203e 7f04 efbb 2241 cdbd 15ac 1f3e
00000200: 9e01 7b3d 538d 1cbe 79a9 6fbd 22c6 ddbd
00000210: 4e05 5fbc d28a 42be dac2 79bc a075 423e
00000220: 5be6 d03d dd9d 093d 2f58 98bd 5254 993c
00000230: 48b3 ffbc 2e08 24bd 3fca bd3d f398 86bd
00000240: c9d1 e73d 337e 88bc b762 2ebe a09c 8bbd
00000250: 33a0 ad3d c5d6 983d abe9 4b3e c208 4f3d
00000260: 48d3 c53d 916a 813d f118 e43d a853 1dbe
00000270: 2f00 07be 3a6a c0bd de5b 42be 3de8 853d
00000280: 4b6e fa3c 65e1 8c3c cb53 97bd 787a 21be
00000290: 32b7 0d3e 2057 fb3d f8e6 02bd 3ee9 103c
000002a0: 7a35 703c 473e 4e3c a3eb 843d 1db6 363e
000002b0: a7f8 103e 85b8 173e 7ebc 6ebb f070 0abe
000002c0: 0726 20bd ef7b 3d3e 6008 1abe 5ec2 c13d
000002d0: acdf cf3d 97d9 c7bc 6901 473d 3fdb c7bd
000002e0: 990d febd c41e 07be caa5 e0bc e6c0 1bbe
000002f0: a101 21be 5c46 05bd 25a9 0bbd ff6d debc
00000300: c7c5 8bbd 0ff6 2ebc 9855 473e 55f5 003c
00000310: 0eed 613c 626d a2bc fe32 233d 58fa 193e

conv1.bias f4 [8]
0.15112892 0.046730496 -0.048893627 0.030395193 0.07516493 -0.099278145 0.173462 0.14814356
00000000: 8ac1 1a3e 7a68 3f3d af44 48bd 57ff f83c
00000010: 12f0 993d 5752 cbbd 06a0 313e f2b2 173e

conv2.weight f4 [16, 8, 5, 5]
0.032574285 -0.03288605 -0.014956331 0.018098595 -0.010463087 0.042899217 -0.019419426 0.065934114
-0.066898465 -0.06205667 -0.06856269 -0.030423768 0.015312967 0.06427408 -0.0387454 0.0022107735
-0.046276268 -0.048619475 -0.012776883 -0.043297313 -0.023123577 -0.006821375 0.015351821 0.022320008
-0.06270746 0.057089053 0.010286395 0.04428523 0.03551208 0.00037783734 0.062458422 -0.02694675
-0.043109007 -0.032139957 0.059976153 -0.044139165 0.06180063 -0.055937603 0.026971726 0.018486755
0.025871884 0.057416435 0.010522604 -0.027116505 0.015511619 -0.03958769 0.052992653 -0.058601215
0.0457516 0.007926552 0.023881879 -0.001501039 -0.015779337 0.020560307 0.026755223 -0.016424855
-0.06716288 -0.038786326 -0.012790255 -0.054716077 0.0013952667 0.04926039 -0.07036374 0.025761733
0.04050685 0.025798162 -0.06746992 -0.03873902 0.058319744 -0.00462649 -0.06952316 0.012331529
0.06323573 0.05805089 0.017476162 -0.046299234 -0.05071916 -0.016670281 0.03806726 0.064698786
0.04604471 -0.04892386 -0.06657418 0.031129299 0.029244062 0.035266172 -0.030948203 0.028150123
0.07125626 -0.05681061 -0.056955814 0.022760162 -0.023378996 0.038180247 -0.05030354 -0.016428268
0.029915627 0.045866188 0.037836738 -0.02891642 -0.02256047 -0.0626824 -0.0075764013 0.0103622805
0.0420673 -0.06761535 -0.04862102 0.010050197 0.0074598207 0.018882046 0.04004827 0.011593881
0.04687633 -0.019497374 -0.06498784 0.050658196 0.042203147 0.037873905 -0.00036569862 0.004734275
-0.044443663 -0.044975933 -0.029799161 -0.009237016 -0.04635718 0.016676469 0.0049375296 -0.03767346
-0.06906574 -0.010104094 0.06696433 -0.0388069 -0.067685656 -0.008474994 -0.02656254 0.0072452356
0.0352736 0.038650267 0.007889453 0.026425064 -0.043522663 -0.06878749 -0.058525108 0.045831177
-0.054844126 -0.02956862 0.030158157 -0.06020496 -0.056735896 0.055047225 0.06228077 0.04426403
0.01762451 0.028540289 0.04303005 -0.06209089 -0.02297516 0.055635843 -0.034376472 -0.049550164
0.049522515 -0.05162551 0.018616991 0.039011467 0.06513901 -0.024749644 -0.014638223 -0.007176912
-0.0026231115 -0.043428227 -0.026305074 0.0100230435 0.052543662 0.018683977 0.06724375 0.0136490045
0.055621684 0.053212438 -0.040785525 -0.06391737 -0.063310795 0.04136134 0.04073171 0.06390802
-0.017856378 0.056692 0.028605355 -0.04586869 -0.045808073 0.012851499 0.016915848 -0.04017269
-0.03098416 0.057542183 -0.038584154 -0.01587409 0.0455152 -0.038103364 0.019836646 0.060106955
-0.059442528 0.056482006 -0.06036445 0.03328901 0.024347305 -0.012199148 -0.001426697 0.06399056
-0.056358464 -0.051926177 0.060272496 0.03078398 0.061948042 -0.043177076 0.02168907 -0.033736352
0.06432587 0.012558088 0.023423735 -0.029009473 0.063334145 0.004671008 0.056871276 -0.06735709
0.06517326 0.06383375 -0.017667934 0.0023288806 -0.03563622 -0.028548839 0.042359576 0.019956535
0.03137628 0.068151005 -0.001849449 -0.058078017 0.04400703 0.04407482 -0.016783183 0.04166665
0.016372697 0.022383964 0.06524473 0.037466783 0.0628536 0.05444242 0.0642643 0.037208565
0.010432821 0.031403944 0.056129932 -0.053541448 -0.023261948 -0.06934332 -0.034910243 -0.057626057
00000000: 9d6c 053d 86b3 06bd 660b 75bc 8143 943c
00000010: 5e6d 2bbc 17b7 2f3d 7d15 9fbc 7708 873d
00000020: 1002 89bd 232f 7ebd 986a 8cbd 443b f9bc
00000030: 3de3 7a3c 21a2 833d 7fb3 1ebd a0e2 103b
00000040: 2f8c 3dbd 3725 47bd 2256 51bc 8658 31bd
00000050: a86d bdbc d785 dfbb 3486 7b3c 73d8 b63c
00000060: c56c 80bd 36d6 693d 4588 283c 6e64 353d
00000070: 1d75 113d 7818 c639 67d4 7f3d 6ebf dcbc
00000080: 1293 30bd 30a5 03bd 8ea9 753d 45cb 34bd
00000090: a822 7d3d d41e 65bd cff3 dc3c 8971 973c
000000a0: 46f1 d33c 7f2d 6b3d 0067 2c3c 6f23 debc
000000b0: 7224 7e3c b426 22bd d30e 593d d407 70bd
000000c0: 0866 3b3d 5ede 013c eea3 c33c 83be c4ba
000000d0: ab43 81bc 176e a83c c52d db3c 6b8d 86bc
000000e0: b18c 89bd 69de 1ebd 388e 51bc f71d 60bd
000000f0: 62e1 b63a 43c5 493d dd1a 90bd 450a d33c
00000100: 83ea 253d ab56 d33c ab2d 8abd ceac 1ebd
00000110: afe0 6e3d d099 97bb 2962 8ebd 2e0a 4a3c
00000120: bc81 813d c5c6 6d3d 2b2a 8f3c 44a4 3dbd
00000130: e5be 4fbd 1d90 88bc 6aec 1b3d cc80 843d
00000140: 6199 3c3d 6364 48bd 0b58 88bd df02 ff3c
00000150: 3e91 ef3c 4373 103d 1687 fdbc 169b e63c
00000160: cdee 913d 3eb2 68bd 804a 69bd 8573 ba3c
00000170: 4f85 bfbc e462 1c3d 160b 4ebd 9394 86bc
00000180: 9e11 f53c 2fde 3b3d b2fa 1a3d 21e2 ecbc
00000190: bcd0 b8bc a15f 80bd 7643 f8bb 8ec6 293c
000001a0: c34e 2c3d eb79 8abd d626 47bd 95a9 243c
000001b0: 8371 f43b 85ae 9a3c a809 243d 43f4 3d3c
000001c0: 6501 403d f5b8 9fbc 5818 85bd f87e 4f3d
000001d0: 35dd 2c3d ab21 1b3d 3dbb bfb9 fa21 9b3b
000001e0: 8f0a 36bd af38 38bd 5f1d f4bc da56 17bc
000001f0: 07e1 3dbd 179d 883c 00cb a13b 7c4f 1abd
00000200: 5772 8dbd a48b 25bc 9824 893d fcf3 1ebd
00000210: c79e 8abd b4da 0abc af99 d9bc 7169 ed3b
00000220: 0d7b 103d be4f 1e3d c442 013c 6079 d83c
00000230: d244 32bd 75e0 8cbd 06b8 6fbd 79b9 3b3d
00000240: 3ca4 60bd e439 f2bc 3d0e f73c 7a99 76bd
00000250: e663 68bd 3379 613d 1f1a 7f3d 334e 353d
00000260: 4761 903c 53cd e93c 4740 303d 0453 7ebd
00000270: 6736 bcbc 69e2 633d 58ce 0cbd 1df5 4abd
00000280: 1fd8 4a3d 4575 53bd a982 983c 7dca 1f3d
00000290: 9a67 853d c4bf cabc 28d5 6fbc 4d2c ebbb
000002a0: 82e8 2bbb cce1 31bd bd7d d7bc b137 243c
000002b0: 0638 573d 240f 993c 17b7 893d 13a0 5f3c
000002c0: 90d3 633d 49f5 593d b90e 27bd 1ce7 82bd
000002d0: 17a9 81bd 826a 293d 4bd6 263d 35e2 823d
000002e0: 8a47 92bc df35 683d c755 ea3c cfe0 3bbd
000002f0: 3fa1 3bbd 188f 523c 1b93 8a3c 1e8c 24bd
00000300: 7ed2 fdbc 5ab1 6b3d 6b0a 1ebd 610a 82bc
00000310: 256e 3a3d 4612 1cbd 7680 a23c b632 763d
00000320: 027a 73bd ad59 673d b740 77bd 0f5a 083d
00000330: 0074 c73c efde 47bc 0200 bbba 7c0d 833d
00000340: 22d8 66bd 8bb0 54bd 4be0 763d af2e fc3c
00000350: 3bbd 7d3d 72da 30bd 47ad b13c 212f 0abd
00000360: 48bd 833d 70c0 4d3c 22e3 bf3c 46a5 edbc
00000370: 55b5 813d 410f 993b dbf1 683d 84f2 89bd
00000380: 8f79 853d 45bb 823d 58bc 90bc 22a0 183b
00000390: 49f7 11bd 41df e9bc 3c81 2d3d e37b a33c
000003a0: 6a84 003d c192 8b3d 3669 f2ba 37e3 6dbd
000003b0: b740 343d cc87 343d e37c 89bc a6aa 2a3d
000003c0: 0920 863c 935e b73c 079f 853d c576 193d
000003d0: 63b9 803d 04ff 5e3d 009d 833d 0268 183d
000003e0: 6cee 2a3c 6ca1 003d 80e8 653d 474e 5bbd
000003f0: d78f bebc df03 8ebd 0bfe 0ebd 4d09 6cbd

conv2.bias f4 [16]
-0.053634346 -0.03541137 0.03100278 -0.0041016014 0.025098257 -0.06027755 0.07145741 0.04059621
0.05609715 0.002017342 -0.06426158 -0.05492183 0.015867915 -0.048756152 -0.039696988 0.019374985
00000000: b0af 5bbd 830b 11bd 8bf9 fd3c ba66 86bb
00000010: dc9a cd3c 98e5 76bd 4358 923d 3648 263d
00000020: 20c6 653d 6235 043b 939b 83bd b6f5 60bd
00000030: 6efd 813c 88b4 47bd 4f99 22bd 4ab8 9e3c

fc1.weight f4 [128, 256]
-0.0065585333 0.049940962 -0.024977341 0.003057658 0.010560908 0.049206436 -0.026750334 -0.04150331
0.041411363 -0.024278676 0.051327106 0.011548201 0.026726488 -0.040429115 -0.056732193 -0.022268834
-0.053229287 0.033629734 -0.033298526 0.030229652 -0.016463926 -0.046581145 -0.01607208 0.03393895
0.019137966 -0.026474651 0.0055508516 -0.06037176 0.0132866185 0.024844283 -0.03309624 0.005587759
-0.0104642585 0.025867578 -0.031224694 0.04214811 -0.014810885 0.035206176 0.052554365 0.034774434
0.054836772 -0.016597861 0.007311037 0.0477966 -0.042586144 0.005734303 0.00016710364 0.045871895
-0.013131337 0.024603767 -0.033963755 0.003923981 -0.024281876 -0.04887438 0.033459187 -0.05014762
0.023050759 -0.011228372 0.03306825 -0.024227573 0.060662508 0.027802099 -0.0036567724 -0.030330736
0.058028705 -0.043831307 0.027891044 0.011222183 0.036361203 0.03989802 0.048358053 -0.003285946
0.037402954 -0.014809053 0.039623618 -0.003804949 -0.058634896 -0.056979414 0.015364679 -0.06146578
0.005087715 0.012800408 0.0033638363 0.0434188 -0.02989278 0.03175982 0.046486795 -0.043915894
-0.0066790543 -0.016859058 0.05975665 0.029359717 -0.05686001 -0.03570628 0.03752442 -0.048065208
-0.030456807 -0.055268817 0.055244092 -0.05658266 -0.01898292 0.0031614883 -0.030418307 -0.04642933
0.04027898 0.045489736 0.03905803 0.0050677713 0.03753114 -0.013386593 0.004153507 -0.0408654
0.010377149 0.039971113 0.017325515 -0.039287407 -0.035973363 0.022290062 0.019268058 0.01882929
-0.029554084 -0.05432285 0.02125191 0.058908463 -0.0026676569 -0.023313818 -0.035105594 -0.05125967
-0.02477958 0.013953058 -0.053792622 0.0041858004 0.0031416235 0.015081163 0.039936967 -0.030995676
-0.015549225 0.03043308 0.056105126 0.008687982 -0.0050670486 0.053951174 0.039242964 0.061882284
0.02699505 0.029137325 0.037178755 0.011365163 -0.042418577 -0.01959274 -0.042703427 -0.017071784
0.017495604 -0.05747327 -0.04371696 0.050492566 -0.02756123 -0.05405709 0.024932101 0.056928877
0.0061983387 0.033215854 0.037737947 0.02705589 0.02809985 -0.026231417 -0.02899367 0.0032362193
0.03109742 0.013186239 -0.030537594 0.0047567314 -0.05098896 0.053938765 0.041271407 0.027486244
-0.002440941 0.03846105 -0.03539 0.01600915 0.016769642 -0.055992354 0.019156715 -0.0049812
-0.05040015 -0.05992268 0.032862987 0.013741531 0.025050314 -0.03799442 0.058080353 0.05429467
0.03067174 -0.0063050687 -0.008034583 -0.019258363 -0.042365428 0.016191771 -0.011101042 0.044332054
-0.02659347 -0.04522861 -0.058576845 -0.031949338 -0.016689414 -0.019569254 0.057100706 0.03571549
0.0166957 -0.008611306 -0.0012762372 -0.049944583 0.04787275 0.01146088 -0.02133316 0.021516275
0.042425014 -0.054592837 -0.0031038348 0.05866223 0.036134426 -0.05491579 -0.0359197 0.053333193
0.029568924 -0.012985335 0.058189172 0.0020758484 0.023060534 -0.06056807 -0.0026041786 0.051323023
0.042557195 0.024159554 -0.04785179 -0.060671646 0.0029213452 0.00572635 0.024750033 0.04704587
0.0140385935 0.022044394 0.052363966 0.04862403 0.054880805 0.008821822 0.056260217 0.036975674
0.059568282 0.03682937 -0.028917989 -0.0024575337 -0.019585809 -0.03715117 0.0048252353 0.017834507
00000000: f7e8 d6bb e58e 4c3d 489d ccbc fd62 483b
00000010: a907 2d3c b08c 493d 8423 dbbc 60ff 29bd
00000020: f69e 293d 13e4 c6bc 5f3c 523d aa34 3d3c
00000030: 82f1 da3c 0099 25bd 0460 68bd 216d b6bc
00000040: f406 5abd 55bf 093d 0964 08bd 2da4 f73c
00000050: 5bdf 86bc dfcb 3ebd 98a9 83bc 9203 0b3d
00000060: 39c7 9c3c 5ee1 d8bc ebe3 b53b 6148 77bd
00000070: 1eb0 593c 3d86 cb3c ec8f 07bd 8519 b73b
00000080: 4872 2bbc 3ee8 d33c eeca ffbc 7fa3 2c3d
00000090: 5ba9 72bc 5a34 103d 3f43 573d a36f 0e3d
000000a0: 869c 603d 3df8 87bc 6c91 ef3b 5ec6 433d
000000b0: cf6e 2ebd d2e6 bb3b 8b38 2f39 2be4 3b3d
000000c0: d224 57bc d78d c93c 941d 0bbd bd94 803b
000000d0: c9ea c6bc 8030 48bd 800c 093d 9767 4dbd
000000e0: f2d4 bc3c 35f7 37bc 9372 073d e778 c6bc
000000f0: 4079 783d 3ac1 e33c 76a6 6fbb 2a78 f8bc
00000100: 82af 6d3d 7588 33bd c27b e43c 3fdd 373c
00000110: 7cef 143d 1b6c 233d 1813 463d 0759 57bb
00000120: d733 193d aca1 72bc 604c 223d 745c 79bb
00000130: 252b 70bd 3f63 69bd 22bc 7b3c 8bc3 7bbd
00000140: d9b6 a63b cdb8 513c cf73 5c3b e9d7 313d
00000150: b4e1 f4bc 9616 023d f068 3e3d 27e1 33bd
00000160: f8db dabb 021c 8abc 64c3 743d ca83 f03c
00000170: 0be6 68bd c040 12bd 35b3 193d 06e0 44bd
00000180: 8e80 f9bc 8e61 62bd a147 623d 38c3 67bd
00000190: 1282 9bbc f930 4f3b d02f f9bc ae2c 3ebd
000001a0: 92fb 243d 7253 3a3d 50fb 1f3d 8c0f a63b
000001b0: 41ba 193d 7153 5bbc 241a 883b 7a62 27bd
000001c0: eb04 2a3c c0b8 233d 3dee 8d3c d5eb 20bd
000001d0: ce58 13bd a699 b63c 0cd8 9d3c e23f 9a3c
000001e0: 681b f2bc a381 5ebd 7c18 ae3c 004a 713d
000001f0: dbd3 2ebb 9ffc bebc e2ca 0fbd a9f5 51bd
00000200: 8cfe cabc 5e9b 643c a755 5cbd 0a29 893b
00000210: b2e3 4d3b fb16 773c f294 233d a5ea fdbc
00000220: 2dc2 7ebc cb4e f93c 7dce 653d 0a58 0e3c
00000230: 7c09 a6bb e8fb 5c3d 3bbd 203d 4778 7d3d
00000240: b924 dd3c 66b1 ee3c c048 183d f334 3a3c
00000250: 1abf 2dbd f480 a0bc cae9 2ebd 20da 8bbc
00000260: f152 8f3c 1769 6bbd 8e10 33bd 4bd1 4e3d
00000270: 17c8 e1bc f86a 5dbd 683e cc3c 412e 693d
00000280: 6f1b cb3b 590d 083d 1b93 1a3d 50a4 dd3c
00000290: a831 e63c 45e3 d6bc 2284 edbc c016 543b
000002a0: 04c0 fe3c 180b 583c fa29 fabc 5bde 9b3b
000002b0: cdd9 50bd e5ee 5c3d 350c 293d d52a e13c
000002c0: 32f8 1fbb 5589 1d3d 1bf5 10bd 9f25 833c
000002d0: 7d60 893c 3d58 65bd 8bee 9c3c 5639 a3bb
000002e0: 6370 4ebd 7c71 75bd 579b 063d 2924 613c
000002f0: 5136 cd3c 09a0 1bbd aae5 6d3d 1664 5e3d
00000300: 4d43 fb3c c09a cebb 7ca3 03bc b7c3 9dbc
00000310: 5f87 2dbd 9ba4 843c 25e1 35bc 8795 353d
00000320: 8cda d9bc a341 39bd 46ee 6fbd 4fdd 02bd
00000330: 3db8 88bc b34f a0bc 6ee2 693d 684a 123d
00000340: 6cc5 883c 6f16 0dbc 6a47 a7ba b192 4cbd
00000350: 3716 443d 6ac6 3b3c e1c2 aebc e642 b03c
00000360: dac5 2d3d bd9c 5fbd b569 4bbb ce47 703d
00000370: b101 143d 61ef 60bd 8920 13bd e873 5a3d
00000380: 873a f23c 71c0 54bc c557 6e3d f50a 083b
00000390: 72e9 bc3c 3916 78bd deaa 2abb 1738 523d
000003a0: 7450 2e3d 42ea c53c 3d00 44bd d582 78bd
000003b0: 0a74 3f3b 1ba4 bb3b 95c0 ca3c 2cb3 403d
000003c0: 2102 663c 7296 b43c 997b 563d fe29 473d
000003d0: b2ca 603d 6789 103c 1d71 663d ce73 173d
000003e0: dffd 733d 65da 163d 6be5 ecbc 930e 21bb
000003f0: 6b72 a0bc d32b 18bd 021d 9e3b ac19 923c

fc1.bias f4 [128]
0.028198639 -0.054675303 -0.056679547 -0.0061558476 -0.06347988 -0.048963677 -0.031415153 0.055778038
-0.027127555 0.0127024 -0.021796506 0.038694516 -0.058023307 0.058443304 0.05649388 0.028461283
-0.042411514 0.04511804 -0.023213584 -0.0462668 -0.009467064 -0.034029078 0.012192567 -0.012796985
-0.06131127 -0.0049615647 0.035191193 -0.041322365 0.014415429 0.03385928 0.00641309 0.028627252
0.024770504 0.0423985 0.05299723 -0.04308304 -0.0560045 -0.006934511 0.04186461 0.012893067
-0.041768026 -0.054172657 0.055551503 -0.019339507 0.06038606 -0.0057212673 -0.032135136 -0.05694314
0.061428506 -0.024399739 -0.052024074 -0.0017394813 -0.055623468 -0.032487847 -0.041622136 0.029518519
-0.022029817 0.020489216 -0.03076454 0.056641415 -0.0003565488 0.014887969 0.03139011 0.053119007
-0.034290444 0.0054502906 -0.025694577 0.037962638 0.047727387 0.052003786 0.059282396 0.06172476
0.028262202 -0.04244897 -0.04115007 0.00078536797 0.028856214 0.020518381 -0.05896152 -0.06085719
0.06471937 0.029541723 0.04721091 0.061818372 0.027325118 -0.013227147 -0.02856202 -0.02735218
-0.015496724 -0.0129417945 0.02467621 0.04940459 -0.003113427 0.013248898 0.03358257 -0.0027981948
-0.058525417 0.039698675 0.044449817 0.060795553 0.00455385 -0.001667589 -0.031594772 0.008555274
0.052686512 0.02922501 -0.019827994 0.049014412 -0.044052817 -0.051035345 0.030322153 0.055710454
0.050783504 -0.048015773 0.040061064 0.026219463 0.037614647 -0.022549452 0.017159093 -0.0035897393
0.00010528863 0.024778362 -0.021383762 -0.00996584 0.057568453 0.057643056 0.02740567 -0.048994664
00000000: d500 e73c 36f3 5fbd d028 68bd feb6 c9bb
00000010: bd01 82bd 238e 48bd 2dad 00bd 8377 643d
00000020: 9b3a debc ba1d 503c 968e b2bc 247e 1e3d
00000030: d9a9 6dbd 3f62 6f3d 2066 673d a327 e93c
00000040: b2b7 2dbd b2cd 383d 6a2a bebc 4282 3dbd
00000050: bf1b 1bbc 1362 0bbd 55c3 473c 72aa 51bc
00000060: 8721 7bbd 9f94 a2bb a424 103d a441 29bd
00000070: b12e 6c3c 07b0 0a3d e624 d23b b383 ea3c
00000080: 83eb ca3c 0daa 2d3d a013 593d d777 30bd
00000090: f964 65bd e53a e3bb 3a7a 2b3d 713d 533c
000000a0: f314 2bbd 26e4 5dbd f989 633d e36d 9ebc
000000b0: 6057 773d 7879 bbbb 22a0 03bd 363d 69bd
000000c0: 759c 7b3d f6e1 c7bc 3217 55bd 4fff e3ba
000000d0: 6fd5 63bd fa11 05bd f97b 2abd d2d0 f13c
000000e0: e077 b4bc 00d9 a73c eb05 fcbc d400 683d
000000f0: 2bef bab9 abec 733c ea92 003d 5193 593d
00000100: 2374 0cbd 5a98 b23b 6f7d d2bc b67e 1b3d
00000110: cb7d 433d ec01 553d 19d2 723d 1ad3 7c3d
00000120: 2286 e73c f9de 2dbd fa8c 28bd 27e1 4d3a
00000130: de63 ec3c 2a16 a83c a381 71bd 6445 79bd
00000140: 978b 843d 7c01 f23c 3a60 413d 4335 7d3d
00000150: edd8 df3c adb6 58bc e6fa e9bc ae11 e0bc
00000160: f9e5 7dbc d209 54bc c325 ca3c 785c 4a3d
00000170: a30a 4cbb e811 593c e08d 093d eb61 37bb
00000180: 59b8 6fbd 149b 223d 0311 363d c204 793d
00000190: 7638 953b 0093 daba 8569 01bd 6c2b 0c3c
000001a0: d0cd 573d 4a69 ef3c 516e a2bc 56c3 483d
000001b0: ba70 34bd 700a 51bd 2a66 f83c a530 643d
000001c0: 5d02 503d 30ac 44bd 1217 243d 33ca d63c
000001d0: d111 1a3d a1b9 b8bc 3a91 8c3c d541 6bbb
000001e0: 67ce dc38 fefb ca3c 002d afbc c347 23bc
000001f0: e6cc 6b3d 201b 6c3d db81 e03c a1ae 48bd

fc2.weight f4 [64, 128]
0.0652078 0.07919828 0.07492313 0.048365094 0.064773135 0.07576269 0.011775244 0.08716835
0.07374747 -0.08284171 0.05421623 0.07180438 0.025675295 0.06598525 -0.057891097 -0.07329946
-0.026312726 -0.06839509 0.06089871 0.06092635 -0.07976545 0.055216268 0.01665689 0.06080174
-0.060164776 0.041794844 -0.033293515 0.020821836 -0.05437751 0.038435746 -0.017542226 -0.02938212
-0.011286241 0.07093121 0.05196645 0.04066236 0.010025693 -0.06488866 -0.018605158 -0.0026634058
-0.08061129 0.06747636 -0.07877359 -0.079829 -0.07942954 0.002546636 0.058058146 -0.026985532
-0.055704046 0.06033189 -0.03849025 -0.07957747 -0.037958913 -0.057781924 0.061378025 -0.045050316
0.0020590746 -0.06560509 0.0077076335 -0.030783808 -0.041724917 -0.087270044 -0.05564704 -0.030146737
-0.036936782 -0.068877175 -0.041371815 -0.05294252 0.060934473 -0.06179146 -0.0440668 -0.07018472
-0.0087368125 0.06433219 0.028787049 0.079533294 0.04679807 -0.043238524 0.054854233 0.0064494372
-0.043017898 -0.050400898 0.046012655 -0.016682915 -0.050815593 -0.08794197 -0.062175237 0.05490698
0.06838996 0.08272707 0.06084686 -0.052429043 0.06420034 -0.08186108 -0.08102157 0.03343
-0.017174998 -0.08004686 0.051176246 0.050704904 0.00017364354 0.051952165 0.044656176 0.061728172
0.08135313 -0.050006714 -0.06234712 0.05108934 0.069020845 0.05794158 -0.045941632 -0.0076647564
0.022862863 -0.039048582 0.020589596 -0.011331831 0.03574736 0.051433526 -0.03870579 -0.052664854
0.066531286 0.04558382 -0.044217728 -0.016275661 0.06656812 0.042306796 -0.014665898 -0.0628029
-0.032495636 0.053655393 0.030828662 -0.05877085 0.08383757 -0.08352795 -0.0066105644 0.085071236
-0.06472355 0.019882817 -0.02819371 0.04414366 -0.077907555 0.021269374 0.043486267 -0.031317025
-0.02770969 0.081280425 0.02328661 -0.020128412 -0.057044957 -0.064711496 -0.06296763 -0.04131803
-0.0041048694 -0.014535615 0.001280275 0.032205887 -0.025818136 -0.075072534 0.05483319 -0.00800198
-0.027982684 -0.0052751466 0.082241505 0.085170515 0.04941172 -0.087856434 -0.073584124 0.0061458987
-0.031872783 0.0054944763 -0.030838287 0.029710412 -0.009696826 0.06280362 -0.06430346 -0.0085585285
0.08395265 -0.057495844 -0.014858208 -0.087619565 0.081732854 0.008229485 0.007499072 0.034075167
0.02336155 -0.060422212 -0.013904905 -0.012714384 0.050224043 0.01888818 0.02592185 0.06951419
-0.012184047 -0.010906873 0.054483257 -0.060139876 0.078852035 -0.060276527 0.05131752 0.04561108
0.07440865 -0.008137166 -0.019376758 -0.06843772 0.0072137145 -0.054454368 -0.013865622 -0.006570029
-0.06257814 -0.07296838 -0.072876856 -0.07602244 -0.04837536 -0.06489871 -0.034587387 0.06285864
0.029923031 0.053220373 0.07437707 0.08222238 0.03951289 -0.08281628 0.022188496 0.029419761
-0.0880289 0.07447767 -0.048563704 -0.040675063 -0.06285442 0.027868075 -0.027100064 -0.078517854
0.071769185 -0.06251407 0.061614465 -0.08551434 -0.057147503 -0.008260298 -0.007955638 -0.07351382
0.0105742235 0.085896984 0.06923678 -0.055954657 -0.08509223 0.07665655 -0.08646255 -0.041898195
0.0001987095 -0.045197904 0.0128054265 -0.021283433 -0.05156888 -0.08818118 0.009069125 0.05143345
00000000: ab8b 853d b532 a23d 4c71 993d 7a1a 463d
00000010: c7a7 843d 7829 9b3d f4ec 403c 5285 b23d
00000020: ea08 973d eaa8 a9bd d611 5e3d 2d0e 933d
00000030: ff54 d23c 4623 873d 371f 6dbd 071e 96bd
00000040: c98d d7bc ba12 8cbd ed70 793d e98d 793d
00000050: 115c a3bd 742a 623d 0874 883c 3f0b 793d
00000060: 576f 76bd 1231 2b3d c85e 08bd 8e92 aa3c
00000070: f4ba 5ebd cd6e 1d3d b7b4 8fbc c6b2 f0bc
00000080: ede9 38bc 6244 913d c6da 543d 938d 263d
00000090: ce42 243c 59e4 84bd d869 98bc 898c 2ebb
000000a0: 8817 a5bd 0c31 8a3d 0c54 a1bd 637d a3bd
000000b0: f4ab a2bd 76e5 263b 61ce 6d3d c310 ddbc
000000c0: ed29 64bd 921e 773d f4a7 1dbd 83f9 a2bd
000000d0: ce7a 1bbd bdac 6cbd 8667 7b3d ae86 38bd
000000e0: 8af1 063b f65b 86bd 5190 fc3b 532e fcbc
000000f0: bfe7 2abd a3ba b2bd 27ee 63bd 4af6 f6bc
00000100: 064b 17bd 7a0f 8dbd 7e75 29bd 41da 58bd
00000110: 6d96 793d 0b19 7dbd 647f 34bd 02bd 8fbd
00000120: d924 0fbc 98c0 833d d1d2 eb3c 5ae2 a23d
00000130: 55af 3f3d e11a 31bd d5ae 603d cd55 d33b
00000140: 8933 30bd 2c71 4ebd c477 3c3d 9caa 88bc
00000150: 0324 50bd eb1a b4bd 76ab 7ebd 24e6 603d
00000160: 0910 8c3d cf6c a93d 8f3a 793d d6bf 56bd
00000170: 787b 833d c8a6 a7bd a3ee a5bd e5ed 083d
00000180: 95b2 8cbc 9cef a3bd 2f9e 513d f2af 4f3d
00000190: 1514 3639 cbcb 543d 65e9 363d aed6 7c3d
000001a0: 789c a63d d7d3 4cbd b25f 7fbd 0e43 513d
000001b0: cd5a 8d3d 2654 6d3d 4b2d 3cbd a328 fbbb
000001c0: e64a bb3c 68f1 1fbd 83ab a83c 25a9 39bc
000001d0: d36b 123d f6ab 523d f689 1ebd 1ab7 57bd
000001e0: 8e41 883d 1ab6 3a3d a61d 35bd 8954 85bc
000001f0: de54 883d e449 2d3d 3c49 70bc cf9e 80bd
00000200: 251a 05bd c2c5 5b3d 648c fc3c b4b9 70bd
00000210: 08b3 ab3d b410 abbd 6f9d d8bb d439 ae3d
00000220: c88d 84bd 4ae1 a23c 7ff6 e6bc fccf 343d
00000230: ff8d 9fbd 1c3d ae3c a81e 323d 4846 00bd
00000240: 6fff e2bc 5a76 a63d 90c3 be3c 57e4 a4bc
00000250: f9a7 69bd 7687 84bd 2cf5 80bd 183d 29bd
00000260: 2482 86bb ca26 6ebc e7ce a73a 52ea 033d
00000270: 8e80 d3bc a1bf 99bd c498 603d bd1a 03bc
00000280: f13b e5bc 23db acbb 3c6e a83d e16d ae3d
00000290: f263 4a3d 13ee b3bd 46b3 96bd 8963 c93b
000002a0: 098d 02bd 020b b43b 93a0 fcbc 4063 f33c
000002b0: 70df 1ebc 2f9f 803d 88b1 83bd 1239 0cbc
000002c0: 5eef ab3d c380 6bbd d76f 73bc e371 b3bd
000002d0: 8e63 a73d f6d4 063c c6ba f53b 6792 0b3d
000002e0: b960 bf3c 487d 77bd 66d1 63bc fe4f 50bc
000002f0: bab7 4d3d 62bb 9a3c 0f5a d43c 755d 8e3d
00000300: 999f 47bc beb2 32bc d629 5f3d 3b55 76bd
00000310: 2d7d a13d 85e4 76bd 5232 523d afd2 3a3d
00000320: 9063 983d bf51 05bc 02bc 9ebc 1329 8cbd
00000330: 0661 ec3b 8b0b 5fbd a22c 63bc 6649 d7bb
00000340: f828 80bd 7270 95bd 7640 95bd a7b1 9bbd
00000350: 3e25 46bd 9de9 84bd 81ab 0dbd 08bc 803d
00000360: 2521 f53c 9bfd 593d 0153 983d 3564 a83d
00000370: 45d8 213d 959b a9bd a6c4 b53c b601 f13c
00000380: 7f48 b4bd c087 983d bcea 46bd e59a 26bd
00000390: d1b9 80bd 974b e43c f400 debc f8cd a0bd
000003a0: b9fb 923d 6007 80bd 735f 7c3d 2422 afbd
000003b0: 8013 6abd 3356 07bc 5d58 02bc 6a8e 96bd
000003c0: 823f 2d3c c2ea af3d 03cc 8d3d b630 65bd
000003d0: d644 aebd 1cfe 9c3d 4713 b1bd 719d 2bbd
000003e0: ad5c 5039 7021 39bd dacd 513c 985a aebc
000003f0: e439 53bd 5698 b4bd ab96 143c e2ab 523d

fc2.bias f4 [64]
-0.000775258 -0.008539737 -0.00936166 0.04998529 -0.017351376 0.07444669 -0.005305426 0.0011048713
-0.00038001948 0.050983757 0.0096416455 0.08481067 -0.0027554096 -0.064191766 0.08645555 -0.0075160577
0.044665087 0.08405233 0.02864335 0.0044503566 -0.07712581 0.06628967 -0.06097067 -0.081979014
0.030037185 0.014642373 0.08212161 0.0672504 0.0013220438 -0.07715242 -0.04096235 -0.02670358
-0.013085294 -0.06433303 0.0035066928 -0.011724988 -0.015098035 0.044308376 0.040925607 -0.08422536
-0.06528479 0.028422961 -0.007834525 0.088566065 0.075086676 0.035557527 0.05990228 0.011537974
-0.07680381 0.035235185 -0.043932058 0.054686468 0.041553337 0.004885556 0.03262334 0.02362316
0.07544135 -0.05690741 0.07024482 0.042497177 0.03375333 -0.07268429 -0.05150316 0.024180874
00000000: af3a 4bba 41ea 0bbc a661 19bc 60bd 4c3d
00000010: 7924 8ebc 8277 983d 24d9 adbb 54d1 903a
00000020: 5a3d c7b9 58d4 503d fef7 1d3c 37b1 ad3d
00000030: 1a94 34bb f976 83bd 9b0f b13d 4349 f6bb
00000040: bdf2 363d a123 ac3d 75a5 ea3c 4cd4 913b
00000050: 23f4 9dbd e1c2 873d 62bc 79bd 9de4 a7bd
00000060: 8b10 f63c 90e6 6f3c 602f a83d 94ba 893d
00000070: 6e48 ad3a 1702 9ebd 23c8 27bd 77c1 dabc
00000080: b363 56bc 09c1 83bd 8bd0 653b 2a1a 40bc
00000090: c05d 77bc b37c 353d 9ca1 273d 587e acbd
000000a0: 08b4 85bd 45d7 e83c 615c 00bc 2062 b53d
000000b0: 0bc7 993d c5a4 113d 185c 753d c509 3d3c
000000c0: 514b 9dbd c552 103d 1af2 33bd ebfe 5f3d
000000d0: d533 2a3d 0417 a03b 0da0 053d 5b85 c13c
000000e0: ff80 9a3d bf17 69bd 84dc 8f3d 8511 2e3d
000000f0: ef40 0a3d 80db 94bd faf4 52bd f816 c63c

fc3.weight f4 [10, 64]
-0.031547055 -0.120370604 0.011272755 0.12492183 0.013979761 -0.09932397 -0.10932876 0.004306472
0.070439145 0.004464727 -0.0567939 0.059477784 0.03836859 0.043736238 0.031444244 -0.08524001
0.03732807 -0.014207396 0.08382878 -0.06341221 0.003280744 0.07435631 -0.086463556 0.08289772
0.08772055 0.08898104 0.111054875 -0.10195209 0.12449392 -0.026301082 0.038833536 -0.05377204
0.051249146 -0.09153128 -0.06404236 0.048260037 -0.05083028 0.0830457 0.09868377 0.06966152
-0.036642794 -0.06621817 0.036193475 0.07805904 -0.037235934 0.10191707 -0.033836618 0.072266564
0.0015397668 -0.08399059 0.098747954 -0.10768735 0.108445905 0.10738363 -0.03904627 0.122265205
-0.09750471 -0.1077383 0.06594586 -0.11028469 -0.0021832106 -0.068462014 -0.016199207 -0.026628645
0.050514784 0.083356045 -0.057309184 -0.09235642 -0.0666238 0.0749225 0.11779256 -0.06334912
0.12103951 0.035596136 0.036558334 0.12336135 -0.07284095 -0.062061653 0.012017987 0.104118615
0.08961803 0.06724079 0.09007844 0.054562554 0.018233433 -0.02080562 -0.12363683 -0.066858396
0.04715204 0.012246151 0.014222926 -0.08294555 0.033207066 -0.077418014 0.021238884 0.09623325
0.08722457 -0.027494982 0.08441615 -0.0047574374 0.019942645 0.090379074 0.04988117 -0.09741428
0.10950096 0.03447377 -0.096345134 0.09101894 -0.028904958 -0.08371274 0.12133279 -0.052946746
0.09288508 0.060801785 -0.022282384 0.07739577 0.018794972 -0.099056706 0.025228798 -0.01299444
-0.008667871 0.07164792 0.01660772 0.0688618 -0.06858952 -0.113234475 0.050597206 0.038847852
0.0041523455 -0.094866335 -0.017079681 -0.052016 0.023090499 0.01256067 0.07717949 -0.11873647
-0.11504669 0.11846162 0.049584255 -0.023442786 -0.028912606 0.10049434 -0.033397816 0.123448625
-0.03890066 0.014367447 0.10659766 0.10746176 0.032859564 0.019602487 -0.11767405 -0.056291983
-0.051320102 0.020107372 -0.12610637 0.08743557 0.06683639 -0.028553408 0.09390355 0.098015465
0.08368978 0.009197652 0.06724668 -0.104209974 -0.029678233 -0.1155925 0.0041737757 -0.02153658
-0.00017870225 0.06803998 0.0011903697 0.096801594 -0.072446175 -0.10689902 0.00977918 -0.046742078
0.08844489 0.084321104 -0.009632069 0.043956716 -0.10603722 -0.027684245 -0.021440001 0.096442364
-0.11709195 0.054914046 -0.051345337 0.019557659 -0.107150234 0.007230162 -0.043876603 0.09627004
-0.079646684 0.09169816 -0.067826755 -0.018754141 0.029887827 0.0671548 -0.040584583 0.0027526992
0.085932314 0.07594129 -0.09888963 -0.023230568 0.06951006 0.11362234 0.040049005 -0.015506774
-0.037210964 -0.035145257 0.04637815 0.03267574 0.1048339 -0.024746126 -0.03695859 0.024971576
-0.08497559 -0.0930905 -0.038451735 -0.11793166 -0.08077907 -0.113389015 0.03672544 0.083355315
-0.046956696 0.054591402 0.111140266 -0.05914116 0.000786071 0.049489375 -0.04580443 0.07289682
-0.029950596 0.033545 -0.112440616 0.10457966 0.09380162 -0.119679004 0.010743789 -0.013267545
0.11519249 0.052260473 -0.07098997 0.049707867 0.074875645 -0.04008979 -0.11781713 0.04134406
-0.115220875 -0.07926463 -0.09728742 -0.024712304 -0.01547081 -0.005262124 -0.068659045 0.05662281
00000000: 7c37 01bd dd84 f6bd 5db1 383c 04d7 ff3d
00000010: 5e0b 653c 5e6a cbbd c2e7 dfbd 4e1d 8d3b
00000020: 6642 903d d84c 923b b8a0 68bd fa9e 733d
00000030: 6228 1d3d c524 333d aecb 003d 5092 aebd
00000040: 51e5 183d 23c6 68bc 6cae ab3d 43de 81bd
00000050: c001 573b 1f48 983d ce13 b1bd 48c6 a93d
00000060: d5a6 b33d b13b b63d bd70 e33d 42cc d0bd
00000070: abf6 fe3d 5e75 d7bc ea0f 1f3d 1240 5cbd
00000080: a0ea 513d c074 bbbd a428 83bd 51ac 453d
00000090: 6933 50bd dd13 aa3d b71a ca3d b3aa 8e3d
000000a0: c116 16bd 649d 87bd 9c3f 143d 6bdd 9f3d
000000b0: b584 18bd e6b9 d03d 4498 0abd 7e00 943d
000000c0: 00d2 c93a 4203 acbd 5e3c ca3d 2f8b dcbd
000000d0: e318 de3d f3eb db3d fbee 1fbd 2e66 fa3d
000000e0: 8db0 c7bd e6a5 dcbd a00e 873d f1dc e1bd
000000f0: 3214 0fbb d035 8cbd 33b4 84bc 5124 dabc
00000100: 97e8 4e3d 93b6 aa3d 09bd 6abd 5d25 bdbd
00000110: 0f72 88bd f870 993d 3a3d f13d 2fbd 81bd
00000120: 90e3 f73d 41cd 113d 31be 153d e0a4 fc3d
00000130: a32d 95bd 5c34 7ebd 17e7 443c 243c d53d
00000140: a889 b73d 8ab5 893d 0c7b b83d fc7c 5f3d
00000150: 485e 953c 8c70 aabc 4e35 fdbd 0eed 88bd
00000160: 7f22 413d 15a4 483c 4707 693c 5bdf a9bd
00000170: 2204 083d 568d 9ebd 2bfd ad3c f015 c53d
00000180: cca2 b23d 283d e1bc 60e2 ac3d 47e4 9bbb
00000190: c25e a33c aa18 b93d 3350 4c3d 2381 c7bd
000001a0: 0a42 e03d 5e34 0d3d 9950 c5bd 2368 ba3d
000001b0: 17ca ecbc 9671 abbd 537d f83d b0de 58bd
000001c0: 883a be3d 4b0b 793d 8c89 b6bc ac81 9e3d
000001d0: eaf7 993c 3ede cabd a0ac ce3c a2e6 54bc
000001e0: b003 0ebc 25bc 923d ea0c 883c 6a07 8d3d
000001f0: aa78 8cbd 7ae7 e7bd 043f 4f3d ed1e 1f3d
00000200: 6610 883b 4849 c2bd b0ea 8bbc bb0e 55bd
00000210: 4928 bd3c 45cb 4d3c 4810 9e3d 1b2c f3bd
00000220: 999d ebbd 019c f23d dc18 4b3d 160b c0bc
00000230: 21da ecbc facf cd3d 26cc 08bd a2d2 fc3d
00000240: 4c56 1fbd 7165 6b3c e04f da3d e914 dc3d
00000250: c097 063d 6595 a03c 18ff f0bd 6c92 66bd
00000260: 0735 52bd 37b8 a43c 0722 01be 6c11 b33d
00000270: 84e1 883d d6e8 e9bc 8150 c03d 55bc c83d
00000280: 8c65 ab3d c0b1 163c a1b8 893d 0a6c d5bd
00000290: c41f f3bc c3bb ecbd 2bc4 883b 7b6d b0bc
000002a0: 0562 3bb9 8c58 8b3d 2e06 9c3a ea3f c63d
000002b0: a95e 94bd e0ed dabd db38 203c 9f74 3fbd
000002c0: 9822 b53d 8bb0 ac3d d3cf 1dbc f50b 343d
000002d0: 0b2a d9bd 12ca e2bc f1a2 afbc 9383 c53d
000002e0: e7cd efbd 8ded 603d 7d4f 52bd 6237 a03c
000002f0: 9571 dbbd ffea ec3b f4b7 33bd 3a29 c53d
00000300: cd1d a3bd 3fcc bb3d c1e8 8abd 49a2 99bc
00000310: 51d7 f43c 7588 893d 053c 26bd a166 343b
00000320: 48fd af3d 1b87 9b3d a586 cabd 084e bebc
00000330: 4a5b 8e3d d4b2 e83d 6d0a 243d 2010 7ebc
00000340: 866a 18bd 79f4 0fbd 04f7 3d3d ffd6 053d
00000350: 28b3 d63d 63b8 cabc e461 17bd 3191 cc3c
00000360: af07 aebd 3ba6 bebd 917f 1dbd 2786 f1bd
00000370: 7f6f a5bd 8038 e8bd 6a6d 163d 31b6 aa3d
00000380: aa55 40bd 3c9b 5f3d 829d e33d 003e 72bd
00000390: 5510 4e3a 5fb5 4a3d 6d9d 3bbd ee4a 953d
000003a0: f45a f5bc 7b66 093d 4447 e6bd dc2d d63d
000003b0: 101b c03d 441a f5bd b806 303c 1e60 59bc
000003c0: 0aea eb3d 140f 563d 3063 91bd 7a9a 4b3d
000003d0: 6758 993d 3135 24bd 1c4a f1bd 6458 293d
000003e0: ecf8 ebbd 7f55 a2bd a03e c7bd 7571 cabc
000003f0: 4879 7dbc e56d acbb 1d9d 8cbd 52ed 673d

fc3.bias f4 [10]
-0.07395564 -0.07019666 -0.030649459 0.031912062 0.0908511 -0.007232826 0.002392774 0.03516885
-0.08115041 0.06729851
00000000: 0e76 97bd 44c3 8fbd 9314 fbbc 39b6 023d
00000010: 2410 ba3d 5801 edbb 16d0 1c3b 360d 103d
00000020: 3032 a6bd cdd3 893d
